============================================================================================================================================
Layer (type (var_name))                  Input Shape               Output Shape              Param #                   Mult-Adds
============================================================================================================================================
MobileNetV2 (MobileNetV2)                [1, 3, 256, 256]          [1, 256]                  --                        --
├─Sequential (features)                  [1, 3, 256, 256]          [1, 1280, 8, 8]           --                        --
│    └─Conv2d (0)                        [1, 3, 256, 256]          [1, 16, 128, 128]         432                       7,077,888
│    └─BatchNorm2d (1)                   [1, 16, 128, 128]         [1, 16, 128, 128]         32                        32
│    └─ReLU6 (2)                         [1, 16, 128, 128]         [1, 16, 128, 128]         --                        --
│    └─InvertedResidual (3)              [1, 16, 128, 128]         [1, 8, 128, 128]          --                        --
│    │    └─Sequential (conv)            [1, 16, 128, 128]         [1, 8, 128, 128]          320                       4,456,496
│    └─InvertedResidual (4)              [1, 8, 128, 128]          [1, 12, 64, 64]           --                        --
│    │    └─Sequential (conv)            [1, 8, 128, 128]          [1, 12, 64, 64]           1,608                     10,420,440
│    └─InvertedResidual (5)              [1, 12, 64, 64]           [1, 12, 64, 64]           --                        --
│    │    └─Sequential (conv)            [1, 12, 64, 64]           [1, 12, 64, 64]           2,688                     9,732,408
│    └─InvertedResidual (6)              [1, 12, 64, 64]           [1, 16, 32, 32]           --                        --
│    │    └─Sequential (conv)            [1, 12, 64, 64]           [1, 16, 32, 32]           2,984                     5,382,464
│    └─InvertedResidual (7)              [1, 16, 32, 32]           [1, 16, 32, 32]           --                        --
│    │    └─Sequential (conv)            [1, 16, 32, 32]           [1, 16, 32, 32]           4,352                     4,030,880
│    └─InvertedResidual (8)              [1, 16, 32, 32]           [1, 16, 32, 32]           --                        --
│    │    └─Sequential (conv)            [1, 16, 32, 32]           [1, 16, 32, 32]           4,352                     4,030,880
│    └─InvertedResidual (9)              [1, 16, 32, 32]           [1, 32, 16, 16]           --                        --
│    │    └─Sequential (conv)            [1, 16, 32, 32]           [1, 32, 16, 16]           5,920                     2,580,928
│    └─InvertedResidual (10)             [1, 32, 16, 16]           [1, 32, 16, 16]           --                        --
│    │    └─Sequential (conv)            [1, 32, 16, 16]           [1, 32, 16, 16]           14,848                    3,588,928
│    └─InvertedResidual (11)             [1, 32, 16, 16]           [1, 32, 16, 16]           --                        --
│    │    └─Sequential (conv)            [1, 32, 16, 16]           [1, 32, 16, 16]           14,848                    3,588,928
│    └─InvertedResidual (12)             [1, 32, 16, 16]           [1, 32, 16, 16]           --                        --
│    │    └─Sequential (conv)            [1, 32, 16, 16]           [1, 32, 16, 16]           14,848                    3,588,928
│    └─InvertedResidual (13)             [1, 32, 16, 16]           [1, 48, 16, 16]           --                        --
│    │    └─Sequential (conv)            [1, 32, 16, 16]           [1, 48, 16, 16]           17,952                    4,375,392
│    └─InvertedResidual (14)             [1, 48, 16, 16]           [1, 48, 16, 16]           --                        --
│    │    └─Sequential (conv)            [1, 48, 16, 16]           [1, 48, 16, 16]           31,488                    7,742,688
│    └─InvertedResidual (15)             [1, 48, 16, 16]           [1, 48, 16, 16]           --                        --
│    │    └─Sequential (conv)            [1, 48, 16, 16]           [1, 48, 16, 16]           31,488                    7,742,688
│    └─InvertedResidual (16)             [1, 48, 16, 16]           [1, 80, 8, 8]             --                        --
│    │    └─Sequential (conv)            [1, 48, 16, 16]           [1, 80, 8, 8]             40,768                    5,180,704
│    └─InvertedResidual (17)             [1, 80, 8, 8]             [1, 80, 8, 8]             --                        --
│    │    └─Sequential (conv)            [1, 80, 8, 8]             [1, 80, 8, 8]             83,200                    5,193,760
│    └─InvertedResidual (18)             [1, 80, 8, 8]             [1, 80, 8, 8]             --                        --
│    │    └─Sequential (conv)            [1, 80, 8, 8]             [1, 80, 8, 8]             83,200                    5,193,760
│    └─InvertedResidual (19)             [1, 80, 8, 8]             [1, 160, 8, 8]            --                        --
│    │    └─Sequential (conv)            [1, 80, 8, 8]             [1, 160, 8, 8]            121,760                   7,651,520
│    └─Conv2d (20)                       [1, 160, 8, 8]            [1, 1280, 8, 8]           204,800                   13,107,200
│    └─BatchNorm2d (21)                  [1, 1280, 8, 8]           [1, 1280, 8, 8]           2,560                     2,560
│    └─ReLU6 (22)                        [1, 1280, 8, 8]           [1, 1280, 8, 8]           --                        --
├─AdaptiveAvgPool2d (avgpool)            [1, 1280, 8, 8]           [1, 1280, 1, 1]           --                        --
├─Sequential (classifier)                [1, 1280]                 [1, 256]                  --                        --
│    └─Dropout (0)                       [1, 1280]                 [1, 1280]                 --                        --
│    └─Linear (1)                        [1, 1280]                 [1, 256]                  327,936                   327,936
============================================================================================================================================
Total params: 1,012,384
Trainable params: 1,012,384
Non-trainable params: 0
Total mult-adds (M): 115.00
============================================================================================================================================
…
