============================================================================================================================================
Layer (type (var_name))                  Input Shape               Output Shape              Param #                   Mult-Adds
============================================================================================================================================
MobileNetV2 (MobileNetV2)                [1, 3, 384, 384]          [1, 384]                  --                        --
├─Sequential (features)                  [1, 3, 384, 384]          [1, 1280, 12, 12]         --                        --
│    └─Conv2d (0)                        [1, 3, 384, 384]          [1, 16, 192, 192]         432                       15,925,248
│    └─BatchNorm2d (1)                   [1, 16, 192, 192]         [1, 16, 192, 192]         32                        32
│    └─ReLU6 (2)                         [1, 16, 192, 192]         [1, 16, 192, 192]         --                        --
│    └─InvertedResidual (3)              [1, 16, 192, 192]         [1, 8, 192, 192]          --                        --
│    │    └─Sequential (conv)            [1, 16, 192, 192]         [1, 8, 192, 192]          320                       10,027,056
│    └─InvertedResidual (4)              [1, 8, 192, 192]          [1, 12, 96, 96]           --                        --
│    │    └─Sequential (conv)            [1, 8, 192, 192]          [1, 12, 96, 96]           1,608                     23,445,720
│    └─InvertedResidual (5)              [1, 12, 96, 96]           [1, 12, 96, 96]           --                        --
│    │    └─Sequential (conv)            [1, 12, 96, 96]           [1, 12, 96, 96]           2,688                     21,897,528
│    └─InvertedResidual (6)              [1, 12, 96, 96]           [1, 16, 48, 48]           --                        --
│    │    └─Sequential (conv)            [1, 12, 96, 96]           [1, 16, 48, 48]           2,984                     12,110,144
│    └─InvertedResidual (7)              [1, 16, 48, 48]           [1, 16, 48, 48]           --                        --
│    │    └─Sequential (conv)            [1, 16, 48, 48]           [1, 16, 48, 48]           4,352                     9,068,960
│    └─InvertedResidual (8)              [1, 16, 48, 48]           [1, 16, 48, 48]           --                        --
│    │    └─Sequential (conv)            [1, 16, 48, 48]           [1, 16, 48, 48]           4,352                     9,068,960
│    └─InvertedResidual (9)              [1, 16, 48, 48]           [1, 32, 24, 24]           --                        --
│    │    └─Sequential (conv)            [1, 16, 48, 48]           [1, 32, 24, 24]           5,920                     5,806,528
│    └─InvertedResidual (10)             [1, 32, 24, 24]           [1, 32, 24, 24]           --                        --
│    │    └─Sequential (conv)            [1, 32, 24, 24]           [1, 32, 24, 24]           14,848                    8,074,048
│    └─InvertedResidual (11)             [1, 32, 24, 24]           [1, 32, 24, 24]           --                        --
│    │    └─Sequential (conv)            [1, 32, 24, 24]           [1, 32, 24, 24]           14,848                    8,074,048
│    └─InvertedResidual (12)             [1, 32, 24, 24]           [1, 32, 24, 24]           --                        --
│    │    └─Sequential (conv)            [1, 32, 24, 24]           [1, 32, 24, 24]           14,848                    8,074,048
│    └─InvertedResidual (13)             [1, 32, 24, 24]           [1, 48, 24, 24]           --                        --
│    │    └─Sequential (conv)            [1, 32, 24, 24]           [1, 48, 24, 24]           17,952                    9,843,552
│    └─InvertedResidual (14)             [1, 48, 24, 24]           [1, 48, 24, 24]           --                        --
│    │    └─Sequential (conv)            [1, 48, 24, 24]           [1, 48, 24, 24]           31,488                    17,419,488
│    └─InvertedResidual (15)             [1, 48, 24, 24]           [1, 48, 24, 24]           --                        --
│    │    └─Sequential (conv)            [1, 48, 24, 24]           [1, 48, 24, 24]           31,488                    17,419,488
│    └─InvertedResidual (16)             [1, 48, 24, 24]           [1, 80, 12, 12]           --                        --
│    │    └─Sequential (conv)            [1, 48, 24, 24]           [1, 80, 12, 12]           40,768                    11,654,944
│    └─InvertedResidual (17)             [1, 80, 12, 12]           [1, 80, 12, 12]           --                        --
│    │    └─Sequential (conv)            [1, 80, 12, 12]           [1, 80, 12, 12]           83,200                    11,683,360
│    └─InvertedResidual (18)             [1, 80, 12, 12]           [1, 80, 12, 12]           --                        --
│    │    └─Sequential (conv)            [1, 80, 12, 12]           [1, 80, 12, 12]           83,200                    11,683,360
│    └─InvertedResidual (19)             [1, 80, 12, 12]           [1, 160, 12, 12]          --                        --
│    │    └─Sequential (conv)            [1, 80, 12, 12]           [1, 160, 12, 12]          121,760                   17,213,120
│    └─Conv2d (20)                       [1, 160, 12, 12]          [1, 1280, 12, 12]         204,800                   29,491,200
│    └─BatchNorm2d (21)                  [1, 1280, 12, 12]         [1, 1280, 12, 12]         2,560                     2,560
│    └─ReLU6 (22)                        [1, 1280, 12, 12]         [1, 1280, 12, 12]         --                        --
├─AdaptiveAvgPool2d (avgpool)            [1, 1280, 12, 12]         [1, 1280, 1, 1]           --                        --
├─Sequential (classifier)                [1, 1280]                 [1, 384]                  --                        --
│    └─Dropout (0)                       [1, 1280]                 [1, 1280]                 --                        --
│    └─Linear (1)                        [1, 1280]                 [1, 384]                  491,904                   491,904
============================================================================================================================================
Total params: 1,176,352
Trainable params: 1,176,352
Non-trainable params: 0
Total mult-adds (M): 258.48
============================================================================================================================================
…
