============================================================================================================================================
Layer (type (var_name))                  Input Shape               Output Shape              Param #                   Mult-Adds
============================================================================================================================================
MobileNetV2 (MobileNetV2)                [1, 3, 512, 512]          [1, 512]                  --                        --
├─Sequential (features)                  [1, 3, 512, 512]          [1, 1280, 16, 16]         --                        --
│    └─Conv2d (0)                        [1, 3, 512, 512]          [1, 16, 256, 256]         432                       28,311,552
│    └─BatchNorm2d (1)                   [1, 16, 256, 256]         [1, 16, 256, 256]         32                        32
│    └─ReLU6 (2)                         [1, 16, 256, 256]         [1, 16, 256, 256]         --                        --
│    └─InvertedResidual (3)              [1, 16, 256, 256]         [1, 8, 256, 256]          --                        --
│    │    └─Sequential (conv)            [1, 16, 256, 256]         [1, 8, 256, 256]          320                       17,825,840
│    └─InvertedResidual (4)              [1, 8, 256, 256]          [1, 12, 128, 128]         --                        --
│    │    └─Sequential (conv)            [1, 8, 256, 256]          [1, 12, 128, 128]         1,608                     41,681,112
│    └─InvertedResidual (5)              [1, 12, 128, 128]         [1, 12, 128, 128]         --                        --
│    │    └─Sequential (conv)            [1, 12, 128, 128]         [1, 12, 128, 128]         2,688                     38,928,696
│    └─InvertedResidual (6)              [1, 12, 128, 128]         [1, 16, 64, 64]           --                        --
│    │    └─Sequential (conv)            [1, 12, 128, 128]         [1, 16, 64, 64]           2,984                     21,528,896
│    └─InvertedResidual (7)              [1, 16, 64, 64]           [1, 16, 64, 64]           --                        --
│    │    └─Sequential (conv)            [1, 16, 64, 64]           [1, 16, 64, 64]           4,352                     16,122,272
│    └─InvertedResidual (8)              [1, 16, 64, 64]           [1, 16, 64, 64]           --                        --
│    │    └─Sequential (conv)            [1, 16, 64, 64]           [1, 16, 64, 64]           4,352                     16,122,272
│    └─InvertedResidual (9)              [1, 16, 64, 64]           [1, 32, 32, 32]           --                        --
│    │    └─Sequential (conv)            [1, 16, 64, 64]           [1, 32, 32, 32]           5,920                     10,322,368
│    └─InvertedResidual (10)             [1, 32, 32, 32]           [1, 32, 32, 32]           --                        --
│    │    └─Sequential (conv)            [1, 32, 32, 32]           [1, 32, 32, 32]           14,848                    14,353,216
│    └─InvertedResidual (11)             [1, 32, 32, 32]           [1, 32, 32, 32]           --                        --
│    │    └─Sequential (conv)            [1, 32, 32, 32]           [1, 32, 32, 32]           14,848                    14,353,216
│    └─InvertedResidual (12)             [1, 32, 32, 32]           [1, 32, 32, 32]           --                        --
│    │    └─Sequential (conv)            [1, 32, 32, 32]           [1, 32, 32, 32]           14,848                    14,353,216
│    └─InvertedResidual (13)             [1, 32, 32, 32]           [1, 48, 32, 32]           --                        --
│    │    └─Sequential (conv)            [1, 32, 32, 32]           [1, 48, 32, 32]           17,952                    17,498,976
│    └─InvertedResidual (14)             [1, 48, 32, 32]           [1, 48, 32, 32]           --                        --
│    │    └─Sequential (conv)            [1, 48, 32, 32]           [1, 48, 32, 32]           31,488                    30,967,008
│    └─InvertedResidual (15)             [1, 48, 32, 32]           [1, 48, 32, 32]           --                        --
│    │    └─Sequential (conv)            [1, 48, 32, 32]           [1, 48, 32, 32]           31,488                    30,967,008
│    └─InvertedResidual (16)             [1, 48, 32, 32]           [1, 80, 16, 16]           --                        --
│    │    └─Sequential (conv)            [1, 48, 32, 32]           [1, 80, 16, 16]           40,768                    20,718,880
│    └─InvertedResidual (17)             [1, 80, 16, 16]           [1, 80, 16, 16]           --                        --
│    │    └─Sequential (conv)            [1, 80, 16, 16]           [1, 80, 16, 16]           83,200                    20,768,800
│    └─InvertedResidual (18)             [1, 80, 16, 16]           [1, 80, 16, 16]           --                        --
│    │    └─Sequential (conv)            [1, 80, 16, 16]           [1, 80, 16, 16]           83,200                    20,768,800
│    └─InvertedResidual (19)             [1, 80, 16, 16]           [1, 160, 16, 16]          --                        --
│    │    └─Sequential (conv)            [1, 80, 16, 16]           [1, 160, 16, 16]          121,760                   30,599,360
│    └─Conv2d (20)                       [1, 160, 16, 16]          [1, 1280, 16, 16]         204,800                   52,428,800
│    └─BatchNorm2d (21)                  [1, 1280, 16, 16]         [1, 1280, 16, 16]         2,560                     2,560
│    └─ReLU6 (22)                        [1, 1280, 16, 16]         [1, 1280, 16, 16]         --                        --
├─AdaptiveAvgPool2d (avgpool)            [1, 1280, 16, 16]         [1, 1280, 1, 1]           --                        --
├─Sequential (classifier)                [1, 1280]                 [1, 512]                  --                        --
│    └─Dropout (0)                       [1, 1280]                 [1, 1280]                 --                        --
│    └─Linear (1)                        [1, 1280]                 [1, 512]                  655,872                   655,872
============================================================================================================================================
Total params: 1,340,320
Trainable params: 1,340,320
Non-trainable params: 0
Total mult-adds (M): 459.28
============================================================================================================================================
…
