============================================================================================================================================
Layer (type (var_name))                  Input Shape               Output Shape              Param #                   Mult-Adds
============================================================================================================================================
MobileNetV2 (MobileNetV2)                [1, 3, 224, 224]          [1, 224]                  --                        --
├─Sequential (features)                  [1, 3, 224, 224]          [1, 1280, 7, 7]           --                        --
│    └─Conv2d (0)                        [1, 3, 224, 224]          [1, 16, 112, 112]         432                       5,419,008
│    └─BatchNorm2d (1)                   [1, 16, 112, 112]         [1, 16, 112, 112]         32                        32
│    └─ReLU6 (2)                         [1, 16, 112, 112]         [1, 16, 112, 112]         --                        --
│    └─InvertedResidual (3)              [1, 16, 112, 112]         [1, 8, 112, 112]          --                        --
│    │    └─Sequential (conv)            [1, 16, 112, 112]         [1, 8, 112, 112]          320                       3,412,016
│    └─InvertedResidual (4)              [1, 8, 112, 112]          [1, 12, 56, 56]           --                        --
│    │    └─Sequential (conv)            [1, 8, 112, 112]          [1, 12, 56, 56]           1,608                     7,978,200
│    └─InvertedResidual (5)              [1, 12, 56, 56]           [1, 12, 56, 56]           --                        --
│    │    └─Sequential (conv)            [1, 12, 56, 56]           [1, 12, 56, 56]           2,688                     7,451,448
│    └─InvertedResidual (6)              [1, 12, 56, 56]           [1, 16, 28, 28]           --                        --
│    │    └─Sequential (conv)            [1, 12, 56, 56]           [1, 16, 28, 28]           2,984                     4,121,024
│    └─InvertedResidual (7)              [1, 16, 28, 28]           [1, 16, 28, 28]           --                        --
│    │    └─Sequential (conv)            [1, 16, 28, 28]           [1, 16, 28, 28]           4,352                     3,086,240
│    └─InvertedResidual (8)              [1, 16, 28, 28]           [1, 16, 28, 28]           --                        --
│    │    └─Sequential (conv)            [1, 16, 28, 28]           [1, 16, 28, 28]           4,352                     3,086,240
│    └─InvertedResidual (9)              [1, 16, 28, 28]           [1, 32, 14, 14]           --                        --
│    │    └─Sequential (conv)            [1, 16, 28, 28]           [1, 32, 14, 14]           5,920                     1,976,128
│    └─InvertedResidual (10)             [1, 32, 14, 14]           [1, 32, 14, 14]           --                        --
│    │    └─Sequential (conv)            [1, 32, 14, 14]           [1, 32, 14, 14]           14,848                    2,747,968
│    └─InvertedResidual (11)             [1, 32, 14, 14]           [1, 32, 14, 14]           --                        --
│    │    └─Sequential (conv)            [1, 32, 14, 14]           [1, 32, 14, 14]           14,848                    2,747,968
│    └─InvertedResidual (12)             [1, 32, 14, 14]           [1, 32, 14, 14]           --                        --
│    │    └─Sequential (conv)            [1, 32, 14, 14]           [1, 32, 14, 14]           14,848                    2,747,968
│    └─InvertedResidual (13)             [1, 32, 14, 14]           [1, 48, 14, 14]           --                        --
│    │    └─Sequential (conv)            [1, 32, 14, 14]           [1, 48, 14, 14]           17,952                    3,350,112
│    └─InvertedResidual (14)             [1, 48, 14, 14]           [1, 48, 14, 14]           --                        --
│    │    └─Sequential (conv)            [1, 48, 14, 14]           [1, 48, 14, 14]           31,488                    5,928,288
│    └─InvertedResidual (15)             [1, 48, 14, 14]           [1, 48, 14, 14]           --                        --
│    │    └─Sequential (conv)            [1, 48, 14, 14]           [1, 48, 14, 14]           31,488                    5,928,288
│    └─InvertedResidual (16)             [1, 48, 14, 14]           [1, 80, 7, 7]             --                        --
│    │    └─Sequential (conv)            [1, 48, 14, 14]           [1, 80, 7, 7]             40,768                    3,966,784
│    └─InvertedResidual (17)             [1, 80, 7, 7]             [1, 80, 7, 7]             --                        --
│    │    └─Sequential (conv)            [1, 80, 7, 7]             [1, 80, 7, 7]             83,200                    3,976,960
│    └─InvertedResidual (18)             [1, 80, 7, 7]             [1, 80, 7, 7]             --                        --
│    │    └─Sequential (conv)            [1, 80, 7, 7]             [1, 80, 7, 7]             83,200                    3,976,960
│    └─InvertedResidual (19)             [1, 80, 7, 7]             [1, 160, 7, 7]            --                        --
│    │    └─Sequential (conv)            [1, 80, 7, 7]             [1, 160, 7, 7]            121,760                   5,858,720
│    └─Conv2d (20)                       [1, 160, 7, 7]            [1, 1280, 7, 7]           204,800                   10,035,200
│    └─BatchNorm2d (21)                  [1, 1280, 7, 7]           [1, 1280, 7, 7]           2,560                     2,560
│    └─ReLU6 (22)                        [1, 1280, 7, 7]           [1, 1280, 7, 7]           --                        --
├─AdaptiveAvgPool2d (avgpool)            [1, 1280, 7, 7]           [1, 1280, 1, 1]           --                        --
├─Sequential (classifier)                [1, 1280]                 [1, 224]                  --                        --
│    └─Dropout (0)                       [1, 1280]                 [1, 1280]                 --                        --
│    └─Linear (1)                        [1, 1280]                 [1, 224]                  286,944                   286,944
============================================================================================================================================
Total params: 971,392
Trainable params: 971,392
Non-trainable params: 0
Total mult-adds (M): 88.09
============================================================================================================================================
…
