============================================================================================================================================
Layer (type (var_name))                  Input Shape               Output Shape              Param #                   Mult-Adds
============================================================================================================================================
MobileNetV2 (MobileNetV2)                [1, 3, 320, 320]          [1, 320]                  --                        --
├─Sequential (features)                  [1, 3, 320, 320]          [1, 1280, 10, 10]         --                        --
│    └─Conv2d (0)                        [1, 3, 320, 320]          [1, 16, 160, 160]         432                       11,059,200
│    └─BatchNorm2d (1)                   [1, 16, 160, 160]         [1, 16, 160, 160]         32                        32
│    └─ReLU6 (2)                         [1, 16, 160, 160]         [1, 16, 160, 160]         --                        --
│    └─InvertedResidual (3)              [1, 16, 160, 160]         [1, 8, 160, 160]          --                        --
│    │    └─Sequential (conv)            [1, 16, 160, 160]         [1, 8, 160, 160]          320                       6,963,248
│    └─InvertedResidual (4)              [1, 8, 160, 160]          [1, 12, 80, 80]           --                        --
│    │    └─Sequential (conv)            [1, 8, 160, 160]          [1, 12, 80, 80]           1,608                     16,281,816
│    └─InvertedResidual (5)              [1, 12, 80, 80]           [1, 12, 80, 80]           --                        --
│    │    └─Sequential (conv)            [1, 12, 80, 80]           [1, 12, 80, 80]           2,688                     15,206,712
│    └─InvertedResidual (6)              [1, 12, 80, 80]           [1, 16, 40, 40]           --                        --
│    │    └─Sequential (conv)            [1, 12, 80, 80]           [1, 16, 40, 40]           2,984                     8,409,920
│    └─InvertedResidual (7)              [1, 16, 40, 40]           [1, 16, 40, 40]           --                        --
│    │    └─Sequential (conv)            [1, 16, 40, 40]           [1, 16, 40, 40]           4,352                     6,298,016
│    └─InvertedResidual (8)              [1, 16, 40, 40]           [1, 16, 40, 40]           --                        --
│    │    └─Sequential (conv)            [1, 16, 40, 40]           [1, 16, 40, 40]           4,352                     6,298,016
│    └─InvertedResidual (9)              [1, 16, 40, 40]           [1, 32, 20, 20]           --                        --
│    │    └─Sequential (conv)            [1, 16, 40, 40]           [1, 32, 20, 20]           5,920                     4,032,448
│    └─InvertedResidual (10)             [1, 32, 20, 20]           [1, 32, 20, 20]           --                        --
│    │    └─Sequential (conv)            [1, 32, 20, 20]           [1, 32, 20, 20]           14,848                    5,607,232
│    └─InvertedResidual (11)             [1, 32, 20, 20]           [1, 32, 20, 20]           --                        --
│    │    └─Sequential (conv)            [1, 32, 20, 20]           [1, 32, 20, 20]           14,848                    5,607,232
│    └─InvertedResidual (12)             [1, 32, 20, 20]           [1, 32, 20, 20]           --                        --
│    │    └─Sequential (conv)            [1, 32, 20, 20]           [1, 32, 20, 20]           14,848                    5,607,232
│    └─InvertedResidual (13)             [1, 32, 20, 20]           [1, 48, 20, 20]           --                        --
│    │    └─Sequential (conv)            [1, 32, 20, 20]           [1, 48, 20, 20]           17,952                    6,836,064
│    └─InvertedResidual (14)             [1, 48, 20, 20]           [1, 48, 20, 20]           --                        --
│    │    └─Sequential (conv)            [1, 48, 20, 20]           [1, 48, 20, 20]           31,488                    12,097,248
│    └─InvertedResidual (15)             [1, 48, 20, 20]           [1, 48, 20, 20]           --                        --
│    │    └─Sequential (conv)            [1, 48, 20, 20]           [1, 48, 20, 20]           31,488                    12,097,248
│    └─InvertedResidual (16)             [1, 48, 20, 20]           [1, 80, 10, 10]           --                        --
│    │    └─Sequential (conv)            [1, 48, 20, 20]           [1, 80, 10, 10]           40,768                    8,094,112
│    └─InvertedResidual (17)             [1, 80, 10, 10]           [1, 80, 10, 10]           --                        --
│    │    └─Sequential (conv)            [1, 80, 10, 10]           [1, 80, 10, 10]           83,200                    8,114,080
│    └─InvertedResidual (18)             [1, 80, 10, 10]           [1, 80, 10, 10]           --                        --
│    │    └─Sequential (conv)            [1, 80, 10, 10]           [1, 80, 10, 10]           83,200                    8,114,080
│    └─InvertedResidual (19)             [1, 80, 10, 10]           [1, 160, 10, 10]          --                        --
│    │    └─Sequential (conv)            [1, 80, 10, 10]           [1, 160, 10, 10]          121,760                   11,954,240
│    └─Conv2d (20)                       [1, 160, 10, 10]          [1, 1280, 10, 10]         204,800                   20,480,000
│    └─BatchNorm2d (21)                  [1, 1280, 10, 10]         [1, 1280, 10, 10]         2,560                     2,560
│    └─ReLU6 (22)                        [1, 1280, 10, 10]         [1, 1280, 10, 10]         --                        --
├─AdaptiveAvgPool2d (avgpool)            [1, 1280, 10, 10]         [1, 1280, 1, 1]           --                        --
├─Sequential (classifier)                [1, 1280]                 [1, 320]                  --                        --
│    └─Dropout (0)                       [1, 1280]                 [1, 1280]                 --                        --
│    └─Linear (1)                        [1, 1280]                 [1, 320]                  409,920                   409,920
============================================================================================================================================
Total params: 1,094,368
Trainable params: 1,094,368
Non-trainable params: 0
Total mult-adds (M): 179.57
============================================================================================================================================
…
